temp/exp1.pth (torch_old, 2657 bytes, 6 tensors)

weight_ih_l0 f4 [20, 1]
0.63454825 -1.3888352 0.2023216 -1.5813684 1.4537094 -2.915447 -1.1525553 -2.4058554
-2.8074603 0.32660702 -2.4736674 -0.041299842 2.8333268 -2.4621336 -2.5080104 -1.3385963
-0.15574938 -1.3238903 -2.788055 0.7632094
00000000: c171 223f 5ac5 b1bf 652d 4f3e 486a cabf
00000010: 2613 ba3f af96 3ac0 ef86 93bf 89f9 19c0
00000020: 6ead 33c0 0939 a73e 9150 1ec0 062a 29bd
00000030: 3a55 3540 9993 1dc0 3e83 20c0 2057 abbf
00000040: c47c 1fbe 3d75 a9bf 7e6f 32c0 b161 433f

weight_hh_l0 f4 [20, 5]
0.047127686 0.78925765 -0.3552782 0.47612566 -0.19768889 0.8824911 0.6613813 -0.5103821
0.049938995 0.53794813 -0.09629248 0.08988342 -0.21980494 0.0071141305 -0.22865134 -0.0050045624
0.030879965 -0.36614966 -0.10762125 0.22083825 0.0421292 0.5055475 0.16903083 0.6347127
-0.3193297 0.23725294 0.08735444 -0.21268484 -0.094734624 -0.62430614 0.57036686 0.6404006
-1.2013237 0.059869766 0.98766184 0.0042652837 -0.03243154 -0.48357168 0.0040212404 -0.6508846
-0.41182554 0.36484176 -0.48508865 0.035998013 0.015360058 -0.840779 -0.059413586 -0.13701726
0.55373925 -0.011905345 -0.025404885 -0.025640562 -0.5782525 0.21163957 0.30596763 0.33833322
0.24324238 -0.30557993 0.01793149 0.44183198 -0.0552779 0.2590013 0.5116077 -0.19634584
-0.3302545 0.054552138 -0.070737615 -0.0358614 -0.26460728 -0.11156379 0.060893927 0.11894108
-0.69834685 0.5827339 0.21091776 0.71679884 0.74781907 -0.27811217 0.74407625 0.12289944
0.83856004 0.085777074 -1.6567822 0.4672146 1.545795 0.18000662 -0.02611875 0.07500108
0.31428587 -0.27390772 -0.41166386 -0.13605121 -0.04927379 0.42696035 -0.056292135 0.13945618
0.07549346 0.33612362 0.54226816 -0.23947224
00000000: f608 413d ca0c 4a3f 06e7 b5be bec6 f33e
00000010: f56e 4abe f0ea 613f 4950 293f 67a8 02bf
00000020: d58c 4c3d f8b6 093f fe34 c5bd cc14 b83d
00000030: 8c14 61be a71d e93b 9423 6abe 50fd a3bb
00000040: fbf7 fc3c f877 bbbe 8868 dcbd 6c23 623e
00000050: ab8f 2c3d 906b 013f 6b16 2d3e 887c 223f
00000060: 2f7f a3be 6ff2 723e e2e6 b23d 0eca 59be
00000070: 3a04 c2bd 87d2 1fbf 9003 123f 4bf1 233f
00000080: fac4 99bf 003a 753d 68d7 7c3f cbc3 8b3b
00000090: efd6 04bd b596 f7be 9cc4 833b 60a0 26bf
000000a0: ccda d2be 8acc ba3e 8a5d f8be a772 133d
000000b0: c1a8 7b3c 4b3d 57bf a95b 73bd 414e 0cbe
000000c0: dbc1 0d3f a30e 43bc e81d d0bc 280c d2bc
000000d0: 5b08 14bf 0bb8 583e caa7 9c3e 033a ad3e
000000e0: 8814 793e f974 9cbe 0fe5 923c cd37 e23e
000000f0: 146b 62bd d29b 843e b9f8 023f e20e 49be
00000100: 1e17 a9be 1072 5f3d e2de 90bd 67e3 12bd
00000110: 9b7a 87be 8e7b e4bd e96b 793d 6297 f33d
00000120: dcc6 32bf 0d2e 153f d3fa 573e 2180 373f
00000130: 1271 3f3f b864 8ebe c87b 3e3f b4b2 fb3d
00000140: dfab 563f e4ab af3d 7011 d4bf c136 ef3e
00000150: 9cdc c53f a853 383e fdf6 d5bc 2b9a 993d
00000160: 14ea a03e a23d 8cbe 9bc5 d2be 0251 0bbe
00000170: 50d3 49bd 8c9a da3e 9592 66bd 9acd 0e3e
00000180: 519c 9a3d 6518 ac3e 16d2 0a3f 3638 75be

bias_ih_l0 f4 [20]
0.78842056 0.16763595 0.028553816 0.4684937 0.6247238 -0.14126635 -0.08192438 0.12008967
-0.32409242 0.5746005 0.17430449 -0.17853306 -0.4113178 -0.006019663 -0.2502469 0.58586156
0.1534652 0.50972146 0.45489717 0.31239882
00000000: eed5 493f c2a8 2b3e b1e9 e93c 68de ef3e
00000010: e6ed 1f3f 20a8 10be f8c7 a7bd 93f1 f53d
00000020: 71ef a5be 0519 133f e07c 323e 5fd1 36be
00000030: 3f98 d2be 9840 c5bb 5d20 80be 06fb 153f
00000040: fb25 1d3e 1b7d 023f 48e8 e83e bdf2 9f3e

bias_hh_l0 f4 [20]
0.31754115 0.43241605 0.4940787 -0.21399646 0.20479375 0.62559974 0.18544014 0.2598187
0.13097996 0.4922557 -0.054596353 0.52639556 0.2980117 0.45935768 0.07289365 0.3526014
0.18302391 0.3358274 -0.07315189 0.5693362
00000000: c194 a23e a365 dd3e e2f7 fc3e e321 5bbe
00000010: 74b5 513e 4e27 203f 05e4 3d3e f506 853e
00000020: 9c1f 063e f008 fc3e 6da0 5fbd dcc1 063f
00000030: fd94 983e ee30 eb3e 4449 953d 2c88 b43e
00000040: 9f6a 3b3e 92f1 ab3e a8d0 95bd 04c0 113f

weight f4 [2, 5]
2.8639367 2.2588353 -2.4544225 0.048303045 3.7395382 -2.376949 -1.8667885 2.7178442
0.510051 -3.292484
00000000: bd4a 3740 c290 1040 4215 1dc0 6ad9 453d
00000010: 9854 6f40 ef1f 18c0 edf2 eebf 29f1 2d40
00000020: b492 023f 0fb8 52c0

bias f4 [2]
-0.7266149 0.2174319
00000000: 6f03 3abf 78a6 5e3e
