temp/exp1.pth (torch_old, 2679 bytes, 6 tensors)

weight_ih_l0 f4 [20, 1]
000000 7c 0d ff bd 85 dd 96 be 30 de a8 3d e8 b3 74 be
       -0.12453744 -0.2946588 0.08245504 -0.23896754
000010 24 0f 84 3e 80 db 42 3e f2 ee c6 3e 00 20 3b 3c
       0.257928 0.19029045 0.38854176 0.011421204
000020 21 da a9 be da 13 b3 be 68 9b 8c 3d c0 42 a2 3d
       -0.33174232 -0.34976083 0.06865579 0.07922888
000030 9a a7 98 be f8 50 6b 3e c0 20 91 bd c6 da b0 be
       -0.2981537 0.22980106 -0.07086325 -0.3454191
000040 06 0e d6 be 6c 99 30 be 32 3c a8 3e 4a 1b b2 3e
       -0.41807574 -0.17246026 0.32858425 0.34786445

weight_hh_l0 f4 [20, 5]
000000 10 c2 05 3e c4 b9 c2 be 0e d7 23 be 38 72 21 be
       0.1306231 -0.38032353 -0.16000006 -0.15766227
000010 8c 40 2e be 70 4c ad 3e e8 22 ae 3e c8 cc c6 3d
       -0.1701681 0.3384738 0.34011006 0.09707028
000020 20 ec c3 3c 72 52 ae 3e bc c6 8a be 00 c6 bd be
       0.023916304 0.34047276 -0.27104747 -0.37065125
000030 98 2e ba be e4 93 d4 bd 8d f0 cd be c0 f4 88 be
       -0.36363673 -0.103797704 -0.40222588 -0.2674923
000040 12 87 6b be 18 68 c5 3e 7e f6 2e be c8 4e 1a be
       -0.23000744 0.3855598 -0.17086217 -0.15069115
000050 b7 92 ad be ce 8a 8c 3e dc f2 16 3e 94 d9 a5 be
       -0.33900997 0.2744965 0.14741081 -0.3239256
000060 70 c9 eb 3c 20 7e bd 3c 64 84 95 3e 5a e5 01 be
       0.028782576 0.02313143 0.2920257 -0.12685147
000070 20 3e 8d 3d 6b c9 ab be 50 85 03 be 47 ab 83 be
       0.06896615 -0.33552107 -0.12843823 -0.25716612
000080 b2 dd ad 3e a6 17 9b 3e f6 0e 78 be 32 37 42 be
       0.33958203 0.3029148 -0.24224457 -0.18966368
000090 73 d3 b4 be b0 28 f0 bd ec 54 24 3e 20 fb cc 3e
       -0.35317573 -0.117265105 0.1604802 0.40035343
0000a0 48 8a e7 3d e8 c8 34 3d fc df 76 3e 88 14 31 3d
       0.11305672 0.04413691 0.24108881 0.04323247
0000b0 e0 54 49 3c fc d9 85 3e 58 a8 26 3e 63 5f 81 be
       0.012288302 0.2614287 0.16275156 -0.25268087
0000c0 20 8c 71 3d 68 d9 13 be 84 c3 37 be 18 84 4d bd
       0.058971524 -0.14438403 -0.17945677 -0.050174803
0000d0 c1 f0 c3 be d4 91 e8 bd 01 45 d6 be 64 2a c6 3e
       -0.38269618 -0.113559395 -0.4184952 0.38704216
0000e0 fc bf 93 be f0 9d 3a be 84 55 10 be 38 37 fa 3d
       -0.2885741 -0.18224311 -0.14095122 0.122175634
0000f0 c0 70 63 bc a7 08 6d be e4 41 b4 3e 32 7a be 3e
       -0.013881862 -0.23147832 0.3520652 0.37202603
000100 78 90 8f 3e 9c f1 6b 3e 13 10 50 be 3e bb 8a 3e
       0.28039908 0.23041385 -0.20318632 0.2709598
000110 ee 24 59 be 20 5c a2 3d c8 58 ad bd 7d 7a 99 be
       -0.21205494 0.07927728 -0.08464199 -0.29976264
000120 38 87 b4 3d 10 10 0b 3e 9e 18 dc 3e 50 88 6f 3d
       0.088148534 0.13580346 0.4298753 0.058479607
000130 e8 0f 1f 3e 5a 34 91 be 4c 86 da be f4 b8 31 be
       0.15533412 -0.28360254 -0.42680585 -0.1735571
000140 ca 9a cf 3e 74 b1 a9 3e 5c e0 bb be 6c 4a 04 3e
       0.40547782 0.33143198 -0.3669461 0.12919015
000150 88 2a 0c 3e aa e7 cb be 24 8a e0 3e 30 90 f7 3d
       0.136881 -0.39825183 0.43855393 0.120880485
000160 a2 c1 96 be 34 63 aa bd de 1c d7 be 24 ba 7c 3e
       -0.29444605 -0.08319703 -0.4201421 0.24680382
000170 38 2f 88 3d a0 14 e3 bd a6 0f b1 3e c0 43 4b 3d
       0.06649631 -0.11087918 0.3458225 0.04962516
000180 e0 2e 44 3e bf d1 8b be 38 85 31 be 50 5a 02 be
       0.19158506 -0.2730846 -0.17335975 -0.12729764

bias_ih_l0 f4 [20]
000000 a6 73 0a be 80 de 75 3b ec d8 84 be c4 69 3e 3e
       -0.13520679 0.0037516654 -0.25946748 0.18595034
000010 66 e6 91 3e 36 f6 49 be c8 db 26 3e f0 5e 42 bd
       0.28496093 -0.19722828 0.16294777 -0.04745382
000020 90 62 a0 3e 78 e7 dd bd e8 fe 3d be 2d 24 b3 be
       0.31325197 -0.10835165 -0.1855427 -0.34988537
000030 21 2a 8d be ca a2 0a be a7 3c c9 be 6c 6b c0 3e
       -0.27571204 -0.13538662 -0.39304087 0.37581956
000040 04 3d c5 bd 53 09 96 be fe b5 b7 be f8 b1 3b 3e
       -0.096307784 -0.2930399 -0.35881037 0.18329608

bias_hh_l0 f4 [20]
000000 f0 4e 79 3e 88 b8 d8 3d b2 0e c4 3e 6f 35 59 be
       0.24346519 0.105820715 0.38292462 -0.2121179
000010 00 8a de 3a 7c 81 77 3e 90 54 b1 3c 88 b9 49 3d
       0.0016978383 0.24170488 0.021646768 0.049249202
000020 00 da dc 3c 34 a3 2f be 00 47 dc bd a0 e6 ed 3d
       0.02695942 -0.17152101 -0.1075573 0.11616254
000030 34 e7 19 3e 45 fe 7d be 00 5b 40 3e 16 ac c2 be
       0.15029603 -0.24804027 0.18784714 -0.38021916
000040 70 99 83 3d a0 18 cd 3d 0c 97 a3 be 98 55 d7 bd
       0.0642575 0.100144625 -0.31951177 -0.105143726

weight f4 [2, 5]
000000 ab 45 dd be ce 15 de 3e a6 73 8c 3e 80 e6 fd 3c
       -0.43217215 0.4337601 0.27431983 0.0309937
000010 e6 ad cc be 15 2e 81 be 00 9d 5a 3d 10 60 1e 3d
       -0.39976424 -0.2523047 0.053372383 0.03866583
000020 e0 70 67 3e 54 35 67 3e
       0.22601652 0.22578937

bias f4 [2]
000000 6a ce ba be 48 8a 22 3e
       -0.36485606 0.15873063
