saveto/softmax/sample.pth (torch_old, 14052 bytes, 8 tensors)

weight f4 [40, 10]
000000 a6 3f a6 3e 8f 71 b1 be 60 d0 0f be a5 df f7 3d
       0.32470435 -0.3465695 -0.14044333 0.12103204
000010 ca f4 80 3e 56 30 d8 3e 23 df 3e 3d 12 75 df bc
       0.2518676 0.42224377 0.04659952 -0.027277503
000020 c8 1f 8c 3c 5e c0 13 3d 2b 0d ab 3d 30 98 98 3e
       0.017104998 0.036072128 0.08352121 0.2980361
000030 21 70 06 be bf 1d 20 be 24 06 1f be fe 32 24 3e
       -0.13128711 -0.15636347 -0.15529686 0.16035077
000040 8d cd 0d be 00 8e 4d be 65 6f 97 be 37 83 34 bf
       -0.13847943 -0.200737 -0.29577175 -0.7051272
000050 0a 28 22 3f 49 af d4 bb ab 8a a3 3d 74 86 f1 bd
       0.63342345 -0.006490622 0.07985433 -0.11793223
000060 fa 26 d3 3e 30 cd a8 3e 8b 00 17 3e 18 af a5 3e
       0.41240674 0.32969046 0.14746301 0.32360148
000070 0f eb 21 3f 89 e0 fe 3e 72 01 fa bd 2e 92 90 3d
       0.63249296 0.49780682 -0.12207307 0.070591316
000080 3f 87 e0 3d 5b dc b1 3e 6b 91 44 3e 9e d4 93 3e
       0.10963296 0.3473843 0.19196098 0.28873152
000090 2d db 82 be fc 57 d9 3e de 65 23 3f 34 1f 57 3f
       -0.25557843 0.4244994 0.6382731 0.8403199
0000a0 58 85 f1 be 19 e4 ae be d5 98 bb be af e9 07 bf
       -0.47172046 -0.341584 -0.3664004 -0.5309095
0000b0 09 8b 13 bf 6c 37 89 be 38 b4 b9 be 27 01 d6 be
       -0.57634026 -0.26800096 -0.36270308 -0.41797754
0000c0 07 29 a0 be 14 7c f0 3d 7c 3d 20 bf 14 d9 06 3d
       -0.312813 0.11742416 -0.6259382 0.032921866
0000d0 1f 57 04 3f 7d fa 43 3f 7b 33 a0 3e af 90 da be
       0.51695436 0.7655409 0.31289276 -0.4268851
0000e0 81 74 b6 be de ef 02 bf 50 5e 32 be f7 87 32 3f
       -0.3563576 -0.5114726 -0.1741879 0.69738716
0000f0 12 22 29 3f 48 fa c5 3e 55 51 e4 bd f3 85 25 bf
       0.6606761 0.38667512 -0.11148325 -0.64657515
000100 39 39 c4 be 72 98 25 be 36 2e 6a be f2 ce 92 be
       -0.38324907 -0.16171435 -0.2286919 -0.28673512
000110 0c fd 53 3e 5c 95 28 3f 67 e6 0f 3f 91 f8 12 be
       0.20701998 0.65852904 0.5621094 -0.14352633
000120 85 e0 bf 3d 3c 8a 97 3e ff 46 c6 3e 27 6f 03 be
       0.093689956 0.29597652 0.3872604 -0.1283537
000130 6e c7 cf 3e 68 46 df 3e f2 cf bf 3e ec a1 0a 3f
       0.4058184 0.43608403 0.37463337 0.54153323
000140 1b 99 04 3f de 2d 8f be 53 ac 83 be de 20 45 3e
       0.5179612 -0.2796468 -0.2571741 0.19250819
000150 81 25 b2 3d db 2d 80 bd 0f 58 7f bd ce b8 ea 3d
       0.086985596 -0.06258746 -0.06233984 0.1146103
000160 8a 39 2d 3f 5b 47 a0 3f 03 e1 81 be a3 8f 4e 3e
       0.6766592 1.2521776 -0.25366983 0.2017198
000170 8e f9 7c be b9 49 8a bd 83 18 04 3d e7 56 68 3e
       -0.24704573 -0.06752343 0.03224994 0.226894
000180 37 f2 24 be ce f9 e2 bd ef 54 6f be e2 d8 0f bf
       -0.16108023 -0.11082803 -0.23372243 -0.5619031
000190 02 f7 ab be d4 98 20 3e 46 81 49 be 53 c1 93 be
       -0.3358689 0.156833 -0.1967822 -0.28858432
0001a0 50 bc c3 bc ed c9 c2 3d 9b 89 81 3e 1c 78 e9 bd
       -0.023893505 0.095111705 0.25300297 -0.11399862
0001b0 3b 61 a5 be 70 4c 3e bf 8f 74 36 3f 17 9d 90 be
       -0.32300743 -0.74335384 0.71271604 -0.2824485
0001c0 74 ba 70 be fc bd 33 be 9b e8 4d be e3 74 d4 3e
       -0.23508626 -0.17552942 -0.20108263 0.41495427
0001d0 ff f8 d2 3e 1b 6c 2d 3f 58 79 26 3f 6b 08 fe 3e
       0.41205594 0.6774308 0.65028906 0.49615797
0001e0 f7 df ad 3e aa ab a2 be 9b 17 4a bf 7e fd 4f bf
       0.33959934 -0.31771594 -0.7894227 -0.81246173
0001f0 bc a3 f4 be de 85 99 3e 41 8b 1e 3d d9 19 3e 3f
       -0.4778117 0.29984945 0.03870702 0.7425819
000200 2e 3c 1d 3f d5 f7 0f 3f f6 f8 09 3e c1 6f 9e bd
       0.6141995 0.56237537 0.13473877 -0.07736159
000210 e7 ea d2 3e 1c 57 37 3e ed 32 13 be cf 18 0f be
       0.4119484 0.17904323 -0.14374895 -0.13974307
000220 ff 87 5f 3e 29 1f d5 bd 48 5a 7a 3e 21 c1 0e 3e
       0.21829222 -0.10406334 0.24448502 0.1394086
000230 1e 5b 8b 3d d8 b9 73 3e 9c 97 88 be 1e 26 50 be
       0.068044886 0.23801363 -0.2667817 -0.2032704
000240 70 6b d6 3d 00 42 96 bd fb 98 09 3f 82 ab b9 3e
       0.10469711 -0.07336807 0.53749055 0.36263663
000250 de 8a 16 3f aa a7 33 3f 35 a3 09 3d 76 9e 5b bd
       0.58805645 0.7017771 0.033602912 -0.053617917
000260 eb 3e 93 be 70 48 10 bd b8 d3 99 be c4 ec d3 bc
       -0.2875894 -0.03522533 -0.3004434 -0.025869735
000270 06 bd 2e 3e 0c b8 65 be c2 08 cc bc 64 28 20 be
       0.17064294 -0.2243349 -0.02490652 -0.15640408
000280 1e 6c 26 3f 90 2d bc 3e 43 02 40 bd ea d2 2b 3e
       0.65008724 0.3675351 -0.046877157 0.16779676
000290 b4 a7 f0 3e 8f 2c 89 3e 97 6a ab be b6 6b b4 bf
       0.47002947 0.26791808 -0.3347976 -1.4095371
0002a0 cb d5 67 bf df b3 d1 bc 1f 14 2f 3c 00 4b 22 be
       -0.905606 -0.025598465 0.01068595 -0.15848923
0002b0 6a 0e 66 be d5 4d b1 3c 62 0c 46 bc 83 4d 87 3e
       -0.22466436 0.021643559 -0.012087913 0.26426324
0002c0 e2 ff 4e 3e 69 c5 23 3c 37 ed 21 be 2e ec 2e bf
       0.20214799 0.009995797 -0.15813147 -0.6832913
0002d0 9c 10 bf 3e b6 ac 63 3d 4a f1 08 be 09 da d5 3e
       0.3731736 0.05558463 -0.13373294 0.4176791
0002e0 50 3c a8 3e e6 c9 3c 3f d7 59 31 3f a1 6d 0e 3f
       0.32858515 0.7374557 0.6927771 0.5563603
0002f0 d6 16 3c 3e 89 e5 17 3f 2b 5e 50 3b de 44 1f be
       0.18368086 0.5933462 0.003179441 -0.15553614
000300 6b 9b a2 3e a2 09 36 bd 9a d0 cd 3d f7 20 63 3e
       0.317592 -0.04444278 0.10049553 0.22180544
000310 e5 96 16 3f 3c 08 68 be 8e 4e 09 be a0 2a a6 bd
       0.58823997 -0.22659391 -0.13408872 -0.08113599
000320 95 a9 84 be c8 a9 b9 be 41 d2 29 be a6 c9 57 3c
       -0.2591063 -0.36262345 -0.16584112 0.013170635
000330 bf 3a cf bd 57 2c 71 be aa 0d 83 be c6 a7 1e be
       -0.10118627 -0.2355207 -0.25596362 -0.15493688
000340 b7 a2 82 be 38 f4 39 bf c6 3f 1c 3f b2 b0 63 be
       -0.25514767 -0.72638273 0.6103481 -0.22235373
000350 59 4c 4a be f8 02 f2 be 87 4e ba bd 3f 5b 9a 3e
       -0.19755687 -0.4726789 -0.09097009 0.3014774
000360 a7 ec 43 3e d4 fb e7 3e 51 0d 22 3f 3f 04 6b 3f
       0.19133244 0.45309317 0.6330157 0.91803354
000370 6f 1c c6 3e e7 87 1e be 7d 6c bc 3e 27 aa 9d 3e
       0.38693568 -0.1548153 0.3680152 0.30793878
000380 f4 1e a9 bd da cc 00 be f7 52 ba 3e a4 4c b5 3e
       -0.08257857 -0.12578145 0.36391422 0.35410035
000390 4a 3d 18 3f 21 50 05 3f 0b 4e a1 be 2d fa aa 3c
       0.5946852 0.5207539 -0.31504855 0.020871246
0003a0 90 31 86 be 7c b9 51 3d eb 65 fa 3e a2 64 52 3e
       -0.26209688 0.051202282 0.48905882 0.20546201
0003b0 c8 f3 15 3f 45 f9 9c 3e 51 e2 22 be 11 09 82 bf
       0.58575106 0.30658928 -0.15906645 -1.0159017
0003c0 18 86 37 3d 8f 30 cf bd 09 93 de be 5b ff 02 be
       0.044805616 -0.10116684 -0.43471554 -0.12792723
0003d0 30 fc 07 be f5 62 96 be 68 cf a6 3e 00 ac df bd
       -0.13279796 -0.29372373 0.32580113 -0.10921478
0003e0 9e 70 41 be f3 69 0e bf 2e 02 01 3f ff 73 38 b9
       -0.18890616 -0.55630416 0.5039395 -0.0001759082
0003f0 34 d5 32 bc ac 52 5f 3d 4f d8 3f 3e 8b 5a 94 3e
       -0.010915089 0.0545222 0.18734859 0.2897533

bias f4 [40]
000000 80 fa 95 3e 77 52 c2 3e 31 33 a4 3e fc ce 75 3d
       0.2929268 0.3795354 0.32070306 0.06001185
000010 66 9d 35 bd 51 ee 9d 3a 08 6b 26 bb bb cc e9 3e
       -0.04433956 0.0012049173 -0.0025393385 0.4566401
000020 20 a0 bd 3e 02 6c 95 3e 1a dd cc 3e d9 12 0d bc
       0.37036228 0.29183966 0.40012437 -0.008610451
000030 8b b0 3f 3d 12 ab af be 8b 36 a3 3e 80 81 a4 be
       0.046799224 -0.34310204 0.3187755 -0.3213005
000040 2a d7 19 bc 9c 84 63 3e 06 bf 88 3c 0e e1 31 be
       -0.009389678 0.22218555 0.01669265 -0.17371008
000050 59 aa 89 3e f0 ab d3 3b 4f 3f 70 bb b0 bc 97 bd
       0.26887777 0.0064597055 -0.0036658829 -0.07409036
000060 b5 86 ea 3e fe cc c2 3e 60 f1 9b 3e d8 bf a5 be
       0.45805898 0.38047022 0.30457592 -0.32372928
000070 5a a8 d5 bc 63 90 fb 3c 0f d6 2d 3d 52 33 9c 3e
       -0.026081253 0.030708497 0.04244047 0.30507904
000080 01 ff e2 3e 27 cd 2b be 71 ec 02 3f 1d 5b a0 3c
       0.44335178 -0.16777478 0.5114203 0.019574696
000090 bf f8 09 bc 64 ca 32 bd c2 ad 9e 3e fa 1a 91 3e
       -0.008421122 -0.043650046 0.30991942 0.28340894

weight f4 [20, 40]
000000 5d 80 88 3d b6 75 83 3d 61 7b b3 bd 40 02 99 3d
       0.06665108 0.06418936 -0.08763767 0.07471132
000010 70 4c 91 bc e8 25 09 be cd 59 13 3e 90 c2 53 3d
       -0.017736644 -0.13393366 0.14389725 0.05169922
000020 dd b8 a5 bb 3a db 42 bd bc bc f1 3d bb 2b f7 bd
       -0.005057438 -0.047572352 0.11803576 -0.12068888
000030 25 98 b5 bc e0 f6 15 be 17 51 72 bd 3b 05 d0 bd
       -0.022167275 -0.14644957 -0.059159365 -0.10157248
000040 43 d7 db bd 8c bf 20 3d ca 9a d2 3d ed 84 f0 bd
       -0.10734417 0.039245173 0.1028343 -0.117441036
000050 4c f7 0f be 57 f3 ed bd 56 64 ee bd 76 52 21 bc
       -0.1405918 -0.11618679 -0.11640231 -0.00984632
000060 83 24 d0 bd 54 f3 ce bd e5 06 c4 bd f2 19 c6 3d
       -0.10163214 -0.10105005 -0.095716275 0.096729174
000070 40 79 f2 3b 50 24 fb 3c ba f5 3d bd 09 aa 84 3c
       0.007399708 0.030656964 -0.04637692 0.01619436
000080 f2 13 d2 bd 9b 71 09 be 41 3e 14 be db 0d b5 bd
       -0.102577105 -0.13422243 -0.14476873 -0.08840533
000090 60 f4 16 3c 3e 72 0c be 20 af 22 3d 3e ee e0 bd
       0.009213537 -0.13715455 0.039717793 -0.10982941
0000a0 59 d5 6c 3d 64 27 8d be 91 f6 87 3e 1d 6f dc 3e
       0.05782065 -0.27569115 0.26555303 0.43053523
0000b0 7e 7a 2e bd af 9c 30 3f 8a 02 d1 3e a0 64 8e 3e
       -0.042597286 0.6898908 0.4082225 0.27811146
0000c0 9b 35 b2 3e 91 56 b6 be f6 68 42 be d0 98 b3 3e
       0.34806523 -0.3561292 -0.18985352 0.35077524
0000d0 a5 dc 44 3f a8 e0 5d be 5a 10 39 3e f3 47 b1 bd
       0.76899177 -0.21667731 0.18072644 -0.08656301
0000e0 1d 57 5a 3f 16 d6 1d be b1 39 b2 3e dc 86 5c 3e
       0.85289174 -0.15413699 0.3480964 0.2153582
0000f0 4a ec d3 be 51 81 af 3e c2 81 b2 3e 35 ab 60 3f
       -0.41391212 0.34278348 0.34864622 0.8776124
000100 4f 14 b8 bd cf 8e f2 bc 50 ca 31 be 90 17 83 3b
       -0.089882486 -0.029609112 -0.17362332 0.0040006116
000110 35 5f f9 3e 74 b5 e8 3e 2e b6 5a 3e 89 b6 66 3e
       0.4870545 0.45450938 0.21358559 0.22530569
000120 7b dc d4 3d 1a 4e ad bd 64 75 1a 3e 76 8f 2c 3e
       0.10393616 -0.08462162 0.15083843 0.16851601
000130 09 0f b4 3e b5 1f 10 3f 31 e4 19 be c0 b5 98 be
       0.3516772 0.5629838 -0.15028454 -0.29826164
000140 cc f3 bf 3e 4d 80 07 3d ca a5 0a 3e a8 de 6e be
       0.3749069 0.03308134 0.13539806 -0.23327124
000150 7a fc 7c 3e 46 4a 7d bf 3e ee 4c bf c3 9b 99 3e
       0.24705687 -0.9894146 -0.8005103 0.3000165
000160 9b df 0d 3d da 47 21 bd 70 21 6a 3e 6d 35 b6 be
       0.034637075 -0.039375164 0.22864318 -0.35587636
000170 f1 a6 2f bf e6 71 00 3d 50 c7 81 3e c9 b8 cb 3d
       -0.6861411 0.031358622 0.25347376 0.09947354
000180 d3 c8 80 bf e6 ab 62 3d ab 6d 9b be 78 8a 68 be
       -1.0061287 0.055339716 -0.30357108 -0.22709072
000190 c1 36 0c 3e 53 43 af be c1 63 64 bc 67 d2 66 bf
       0.13692762 -0.34231052 -0.013939799 -0.901648
0001a0 62 c9 4c 3e 77 98 f0 3d 20 fc 2e 3e 00 37 8a 3b
       0.19998696 0.1174783 0.17088366 0.0042179823
0001b0 17 4e 11 bf cd 54 81 bf aa d3 38 be 53 d3 d4 3d
       -0.5675978 -1.0104004 -0.18049493 0.103918694
0001c0 69 de 15 bc 67 33 f9 3d f1 50 41 3e 1d b7 36 be
       -0.009147265 0.12168007 0.18878533 -0.1784329
0001d0 31 88 bc be ac ce 36 bf 1f 78 b9 bd ed 9f 8e 3d
       -0.36822656 -0.71409106 -0.090561144 0.06964097
0001e0 09 a1 28 3d d1 c7 1f 3e 07 01 a8 3b 79 b6 36 bd
       0.0411692 0.15603568 0.0051270756 -0.044607613
0001f0 a0 8b 1c 3f 56 39 7a be ff 2c 59 bc a1 f1 1e bc
       0.6115055 -0.24435934 -0.013255357 -0.0097011635
000200 d4 67 ce bd 37 84 0d bd f4 8f 00 bd 27 5a 17 bf
       -0.100783974 -0.034549918 -0.031387284 -0.59121937
000210 b7 6b 8d bd 99 77 da 3c 3d 77 1f be a6 51 0c 3e
       -0.069053106 0.026668357 -0.1557283 0.13703021
000220 92 8b 74 3e a7 3f 89 3e 84 8e 1b bf d1 6c 2c be
       0.23881367 0.26806375 -0.60764337 -0.16838385
000230 1b 6b b9 3e d9 72 23 bf 8a 2b 03 bf 91 aa 4a 3d
       0.36214527 -0.6384712 -0.5123831 0.04947907
000240 31 34 a0 3e e8 6d ce 3c 47 71 bf 3d 07 1c 35 be
       0.3128982 0.025198892 0.09347778 -0.17686473
000250 f4 fe 43 3e 3a 4c 22 3e 1b d2 08 bf 5a a5 b8 bd
       0.19140226 0.1584939 -0.53445596 -0.09015913
000260 f9 e2 df 3b 24 b7 5c 3d 68 c1 19 3d 06 b0 1b be
       0.006832477 0.053885594 0.037537962 -0.15203866
000270 08 16 9a be 13 ca af 3d 64 93 0c 3e 21 88 41 3e
       -0.30094934 0.085834645 0.137281 0.18899585
000280 68 d9 f6 3d 48 74 43 bc c2 f6 cc 3e 47 78 a9 3e
       0.12053186 -0.011929579 0.4003201 0.33099577
000290 e8 43 7c be 85 f9 8e be e8 c1 b2 3e e2 b8 f3 3d
       -0.24635279 -0.27924743 0.34913564 0.11900498
0002a0 4c e3 ac 3e 01 f8 bd bd 5b 46 17 bd 6f 38 b0 3e
       0.33767164 -0.092758186 -0.03693233 0.34418055
0002b0 3c 94 f5 3e a8 f9 aa bd 06 04 b3 3e 0b 6a 2b 3e
       0.47964656 -0.083483994 0.34964007 0.16739671
0002c0 09 1f 1a 3e 21 c6 15 ba d1 62 8d 3e 80 4b 23 be
       0.15050901 -0.00057134224 0.27614453 -0.1594677
0002d0 21 f2 a1 be 2f 09 a7 3e b2 31 9b 3e e2 e5 89 be
       -0.31630042 0.32624194 0.30311352 -0.269332
0002e0 45 55 89 3c 0a 08 b6 3e 8f 4f 37 be ee bf 02 be
       0.016764292 0.35553008 -0.17901443 -0.12768528
0002f0 96 e1 c7 bd f7 49 75 be 92 0c e2 3e a7 83 ca 3e
       -0.09759824 -0.23953997 0.44150215 0.39553568
000300 33 8e ad 3e 8e b4 81 bd 58 9e a0 3e 83 12 25 3e
       0.33897552 -0.06333266 0.31370807 0.16120343
000310 2c e1 b6 3e a4 e5 40 3e 66 a2 32 be e3 eb 04 be
       0.35718668 0.18837601 -0.17444763 -0.12980609
000320 bf a0 5d 3e 87 20 7e 3d c4 6e 11 3e 18 62 0c be
       0.21643351 0.06204274 0.1420241 -0.13709295
000330 2f c2 97 3e 0f cf 77 3e f4 e3 cd 3e 15 05 46 3e
       0.29640338 0.2420008 0.40212977 0.19337876
000340 dd 09 ef 3c 3d 52 7f bd 68 cd 4b bd 4a 92 72 3e
       0.029179508 -0.062334288 -0.049756438 0.23688617
000350 87 a1 24 3f c3 b4 7a be bb 13 72 3e 65 72 1f bd
       0.6430897 -0.24483018 0.23640339 -0.038927455
000360 f1 1a 11 3f 23 40 31 be 0f 95 96 3e be af 05 be
       0.56681734 -0.17309622 0.29410598 -0.13055322
000370 bb 9b aa 3c a8 e2 be 3e 41 e2 00 be 15 0a 40 3d
       0.020826211 0.372823 -0.12586309 0.046884615
000380 d6 e0 74 3d 68 be 6e 3e 03 fc 97 3c 2c b4 90 3c
       0.059784733 0.23314822 0.018552786 0.017664038
000390 d3 57 51 3e b9 2a 9f 3e 72 34 18 3e e9 ec c2 3d
       0.20443659 0.31087282 0.14863756 0.09517843
0003a0 dc 58 81 3e ae 66 8e bc 19 33 50 3e 5e 41 c3 bd
       0.25263107 -0.017382946 0.20331992 -0.09533952
0003b0 86 ad 9b 3e a6 86 21 3f f6 47 09 be f7 fb c1 bd
       0.30405825 0.6309608 -0.13406357 -0.094718866
0003c0 65 73 4e 3e 76 ee 32 3e 1e da 1c be 63 8a 62 be
       0.20161207 0.17473778 -0.1531758 -0.22123103
0003d0 15 7c fe 3e 35 49 23 3e ab b9 be 3c 4f 6d 09 be
       0.49704042 0.15945895 0.023281893 -0.13420604
0003e0 07 27 09 3d 7b f4 60 3e a6 96 5d 3e 6d 06 be bd
       0.033484485 0.21968262 0.21639499 -0.09278569
0003f0 1e 93 2f 3d 13 3d 31 bd 50 87 21 be d0 d0 80 3d
       0.04286491 -0.043271136 -0.15774274 0.06289828

bias f4 [20]
000000 cf 71 45 bc 5c aa a6 bc b3 44 59 3e d9 2c 8c 3c
       -0.01205106 -0.020344906 0.21217613 0.017111229
000010 76 18 87 3e 3c 07 06 bd fd 92 94 bc c0 c2 36 3c
       0.2638585 -0.032721743 -0.018136496 0.01115483
000020 4f e6 77 3e 14 8c 00 3e 7b b6 d3 3e 6f 8c a9 3d
       0.2420895 0.12553436 0.4135016 0.08278739
000030 b4 17 69 3e ee 25 39 3c e8 b7 7c 3e 7c 4c 01 3e
       0.22762948 0.011300547 0.2467953 0.12626833
000040 65 2b e0 3d 19 ba 15 be 0f d4 96 3d df 07 48 3e
       0.10945777 -0.14621772 0.07364666 0.19534253

weight f4 [10, 20]
000000 e1 16 0c 3e bb 64 2c 3f c3 a1 3f be d7 19 aa bd
       0.13680603 0.673412 -0.18714051 -0.0830571
000010 33 10 29 3e 53 45 e7 3e 1c ed 75 3e a1 ed 1a 3f
       0.16510086 0.45170078 0.24016231 0.6051884
000020 43 aa 9a be 23 f8 d7 be e7 9d d4 3e 9c 15 17 3f
       -0.30208024 -0.421815 0.4152672 0.5901735
000030 88 a6 4b 3f 93 f4 c7 3e 09 6c 8e be 20 5a c0 bd
       0.7955098 0.39053783 -0.278168 -0.0939219
000040 1a 6a eb bd ff 8c cd 3d 67 56 31 3f 34 24 13 3e
       -0.11494847 0.100366585 0.69272465 0.14369279
000050 68 33 ba 3d ec a0 57 be 4e ad 23 3f f4 74 bc 3e
       0.09091836 -0.2105748 0.63936317 0.36807978
000060 da b1 6e bd b6 f1 0a 3e 3e 21 1c 3e 67 c3 e3 be
       -0.05827508 0.13568768 0.15247056 -0.44485018
000070 9b c0 13 3f f4 f0 57 3f b3 2d 6a 3e 51 c4 93 be
       0.5771577 0.8435204 0.22868995 -0.28860715
000080 57 89 97 be e0 f2 a7 be 87 7d 36 3f 2f 26 d7 3e
       -0.2959697 -0.32802486 0.7128529 0.4202132
000090 de c7 39 3e 54 38 5a bd b8 bf d7 bd 3b ca fa 3e
       0.1814265 -0.053276375 -0.10534614 0.48982415
0000a0 04 d9 64 be 3e 44 78 3d 61 ba e0 bd 92 26 0a 3f
       -0.2234841 0.060611956 -0.10973049 0.53965104
0000b0 e9 a7 32 be 41 8c 5c 3e 67 18 ef 3e be 1e c9 3e
       -0.17446865 0.21537878 0.46698305 0.39281267
0000c0 fa 5a 15 bc 62 a5 32 be 58 e9 4d bd c3 19 fd bd
       -0.009115929 -0.17445901 -0.050271362 -0.12358429
0000d0 8f 42 1e 3e ff 4c eb bd e8 e1 c5 3d f0 ec a6 be
       0.15455078 -0.11489295 0.09662229 -0.32602644
0000e0 0d ed 1c 3e 40 10 b7 3c 0e 71 1e bd fa 2c 85 be
       0.15324803 0.022346616 -0.038682036 -0.26010877
0000f0 b1 7d 23 be 63 8b 5b be c8 18 22 3f 2e 6a 9a 3d
       -0.15965916 -0.2143989 0.63319063 0.075397834
000100 7c 59 15 3e 31 7d 83 3a bc 22 3a 3c db a9 14 bf
       0.14584917 0.0010031817 0.01136082 -0.5807168
000110 dd 90 39 3f a6 88 29 3f cd 28 0a 3f d7 03 14 be
       0.7248667 0.66224134 0.5396851 -0.1445459
000120 31 4b e2 bd a1 05 b3 be 7d d7 78 3f ad 92 c2 3e
       -0.11049498 -0.34965232 0.9720381 0.3800253
000130 ce bf b7 3e a1 69 50 be bc 1b ac be 7d dd 1c 3f
       0.35888523 -0.20352794 -0.3361491 0.61275464
000140 ea b9 3a 3e 7c e7 aa bd 50 80 41 be d0 27 38 3e
       0.18234983 -0.083449334 -0.18896604 0.17983937
000150 18 63 93 be 20 56 51 3e c4 07 5a 3e e4 be 27 3f
       -0.2878654 0.2044301 0.21292025 0.6552565
000160 dc cf f5 3d d7 a5 2e 3e d9 28 ea bd 68 10 b0 3e
       0.12002537 0.1705545 -0.11433572 0.34387517
000170 86 82 f6 bd 0b e0 b6 bc ec c7 04 3d ba 23 4e be
       -0.12036614 -0.022323629 0.032417223 -0.20130816
000180 72 09 57 3e f8 75 a2 3c 3c cc cf 3d e4 d8 02 be
       0.20999697 0.019831643 0.101463765 -0.1277805
000190 f0 66 f2 3d d3 d4 43 be b4 6b ca 3d f8 c4 17 3e
       0.1183604 -0.19124155 0.09883824 0.14821231
0001a0 5f 02 3d be 76 e2 0d 3e 38 d2 86 3d 7e fc 00 be
       -0.18457936 0.13855919 0.06583065 -0.12596318
0001b0 58 5e 4a bd b8 0d 18 3d d4 c6 4f be 30 80 a7 bc
       -0.04940638 0.03712246 -0.2029069 -0.020446867
0001c0 ab 99 f2 bd 50 e0 50 bc 00 db f0 bd 0b 1d cf bd
       -0.11845716 -0.012748793 -0.11760521 -0.101129614
0001d0 b6 50 d8 bd 05 a0 0e be c0 e9 26 3e a0 56 3f be
       -0.105622694 -0.1392823 0.16300106 -0.18685389
0001e0 2d 37 0b be 2d 71 6d 3e 90 d8 65 be 76 69 3a be
       -0.13595267 0.23187704 -0.22445893 -0.18204293
0001f0 52 22 5d 3e 04 9a 8f 3e 88 93 00 3d ac a2 d1 3e
       0.21595123 0.28047192 0.031390697 0.4094442
000200 26 8b a6 be 5c dc 00 bf 21 51 78 3e 0d 73 91 3e
       -0.32528037 -0.5033624 0.24249698 0.2840809
000210 f5 44 be 3e 1d b8 46 3e 06 55 4b be e4 a1 8d 3e
       0.37161985 0.19406171 -0.19856653 0.27662575
000220 8e dc 8d 3e 15 72 40 3e f5 c4 03 3e 66 ec 2c be
       0.27707332 0.18793519 0.12868102 -0.16887054
000230 a8 8f 3c be e3 e3 cd 3e 58 ea 7b be 5f 5a 3d bd
       -0.18414176 0.40212926 -0.24601114 -0.046228763
000240 da af f9 3e 57 83 41 3e 41 69 87 be a3 51 72 3e
       0.48766977 0.18897758 -0.2644749 0.23663954
000250 1a 51 83 be c0 af 01 bf 2b 83 9a 3e 74 b0 c5 3e
       -0.25647813 -0.506588 0.30178198 0.38611186
000260 1c b5 ec 3e 30 eb 08 3f 42 06 e3 be a3 f2 88 3e
       0.46231925 0.5348387 -0.44340712 0.26747617
000270 08 fe 23 3e 16 60 28 be 03 05 f6 3e 62 59 26 be
       0.16014874 -0.16442904 0.480507 -0.16245034
000280 d8 c2 95 3c fe 97 32 be 42 48 ce 3e 9b c5 25 3f
       0.018281385 -0.17440793 0.40289503 0.64754647
000290 45 1a 23 bd 92 6c 4e bd 8c d4 02 3f a4 d7 60 3f
       -0.039819974 -0.05039651 0.5110557 0.8782904
0002a0 94 07 22 3f 42 34 3c 3f 1f c4 7e 3e 8f 00 56 bd
       0.63292813 0.7351724 0.24879502 -0.052246626
0002b0 2a 6e de 3d 06 74 a2 be 0f 36 3c 3f e3 24 e8 bd
       0.10860856 -0.31729144 0.73519987 -0.113351606
0002c0 60 f9 4d 3e 94 76 5e 3e b2 df 40 be 1e c9 c3 3e
       0.2011466 0.21724921 -0.18835333 0.38239378
0002d0 ba 7d 8c bd fe 62 cd be 17 ef 2b 3f 1a 72 92 3e
       -0.06859918 -0.40114588 0.671617 0.28602678
0002e0 ca 26 a3 3e 0f f8 84 bd 33 99 fb 3d cc 92 3a bf
       0.3186553 -0.06492626 0.1228508 -0.72880244
0002f0 6e 9b 18 3f d1 1e 04 3f d2 7f a1 3c 8b 97 6c be
       0.59612167 0.5160952 0.01971427 -0.23104684
000300 40 5e d0 be f9 d1 38 be 59 65 6d 3f 93 6f c3 3e
       -0.40696907 -0.18048848 0.9273277 0.38171062
000310 1a 6a e2 3e 48 9d 62 bd 60 00 ad bd 4c be 2a 3f
       0.44221574 -0.055325776 -0.08447337 0.6669662

bias f4 [10]
000000 b6 b0 ad 3e 91 d7 a6 bd 1a d2 41 bd 07 5c 89 3e
       0.33923882 -0.08146585 -0.04731951 0.26828024
000010 e0 4b 7f 3e 1a 3e 0d be b6 50 c3 3e 68 35 fc 3d
       0.24931288 -0.13793221 0.38147515 0.12314874
000020 7b 46 c2 3c 66 c8 08 bd
       0.023715248 -0.03339424

weight f4 [2, 10]
000000 8a 3a 9e bf 7a 78 51 3f ce d0 ff 3d ad 80 1f 3f
       -1.2361615 0.8182446 0.12490998 0.6230572
000010 51 8d dd be 68 e4 c4 3d f9 24 50 bf 45 ef 7f bf
       -0.43271878 0.096138775 -0.81306416 -0.9997447
000020 3c da 96 bd 24 b0 85 3f 72 83 00 be 28 77 30 bf
       -0.07365844 1.0444379 -0.12550142 -0.6893182
000030 75 78 37 bf 1a 35 0f bf 75 59 24 bf 34 df a5 bd
       -0.7166818 -0.559404 -0.64199 -0.08099213
000040 ab 53 ff 3d 94 20 76 3d 4b 8e 95 bf 18 03 68 bf
       0.1246713 0.060089663 -1.1684049 -0.9062972

bias f4 [2]
000000 00 7e 6c bc 26 1b 14 3d
       -0.014434338 0.036158703
